HW1 Regression/models/model.ckpt (torch, 15559 bytes, 5 tensors)

layers.0.weight f4 [32, 88]
0.016536513 0.029350255 -0.04931899 -0.016699826 0.043302543 -0.016730322 -0.028859293 -0.07740855
0.017552014 0.028670907 -0.092153385 0.09992238 -0.014199552 0.05328827 0.068134055 0.06940449
0.010904248 -0.08983421 -0.051384393 -0.025865369 0.032860294 -0.07209897 -0.090371974 -0.097909205
0.036580574 0.07695925 -0.09421506 -0.04554797 0.088701725 -0.08322291 -0.00615771 0.09020212
0.024881968 -0.04027486 0.02235585 -0.0457371 0.016878782 -0.095659904 -0.02627405 0.07248323
-0.0648761 -0.020839293 0.02351519 0.04960404 0.14660823 0.08373609 0.12452562 -0.107521825
0.010402561 -0.021697216 -0.074271806 0.024911134 -0.70323014 -0.005424157 0.035184454 0.0947235
0.033591863 0.10425994 -0.09746789 -0.0769471 0.07047761 0.013058657 0.049322695 0.104890235
0.18296883 -0.030190658 0.041214395 -0.05005506 0.05347713 0.053448677 -0.99285775 -0.111475565
0.015174292 -0.077306114 0.09601716 0.12841934 -0.08161131 -0.044937134 0.026320172 -0.06946632
0.0279097 -0.033997506 0.112551466 0.02213261 -0.08864895 0.022618612 0.0054003703 0.065139115
-0.7897805 0.093315914 -0.076778024 0.006877931 0.009789215 0.07693401 -0.09468538 0.029511217
0.058010284 0.028675685 0.03409378 0.08447718 0.0815482 0.08241514 -0.065117784 -0.05215726
0.090989016 0.08962149 0.01840356 -0.014734814 -0.06305569 -0.08988086 0.021215633 0.09418552
0.024159567 -0.09880729 -0.06997648 0.0043210997 -0.07602243 -0.08616766 0.056012273 -0.08574441
-0.094193995 0.084386416 -0.09738001 0.0066669756 -0.008972473 -0.09650194 -0.12344475 0.052909028
-0.008919905 0.06233264 -0.07298193 -0.09469594 0.058506414 -0.07685037 -0.06887453 -0.091446
0.008030188 0.013784002 -0.09408093 0.07470479 -0.041051503 -0.020796921 0.05076025 -0.08305056
-0.11192515 0.04666583 -0.070770785 0.068736576 -0.07330514 -0.03504702 0.026638024 0.032268763
-0.10110073 0.03001529 0.05093784 0.075811 -0.05163552 0.074954234 -0.09296917 0.06545089
0.06091343 0.086204976 -0.00041146876 -0.056204442 -0.025098672 -0.09290249 0.055064864 -0.033824764
0.042404782 0.03298766 0.009450105 -0.02325436 -0.105237454 0.0038821856 0.057338823 -0.024822218
-0.71327 0.04124038 -0.040903106 -0.009507059 -0.030864816 -0.082520455 -0.09723153 0.082586214
0.051326033 -0.051233456 0.08596022 0.037193384 -0.014934088 0.08391167 -0.07072995 -0.039423592
-0.062576614 -0.018960265 -0.0055781393 -0.06055063 -0.0016865158 -0.04048661 -0.106378905 -0.10289763
-0.09683567 0.06504025 -0.02471955 0.045140866 -0.046515618 -0.056958657 -0.08683243 0.05365082
-0.07635415 0.040329568 -0.084794365 -0.03105084 -0.056119546 -0.10707857 -0.037668075 -0.13169125
-0.03558822 -0.015197021 -0.061054338 -0.015587227 0.069003925 -0.033318717 -0.1139368 -0.053407677
-0.027838534 0.04164659 -0.016373549 -0.054590322 0.0045449813 -0.080385685 0.03993726 -0.086567946
-0.056865666 -0.0065810946 -0.031177929 -0.021602318 0.079756044 0.022606708 0.020858387 0.012009859
0.056249775 0.0067322967 -0.09221798 -0.030338176 -0.041043106 0.04292704 0.056918394 -0.013570057
0.06506923 -0.0050041755 0.0063757985 -0.045388103 -0.040526483 0.039344903 -0.11291204 -0.080756314
00000000: 9577 873c f26f f03c b602 4abd 13ce 88bc
00000010: 025e 313d 070e 89bc 536a ecbc 6088 9ebd
00000020: 3ec9 8f3c 40df ea3c eaba bcbd 1ba4 cc3d
00000030: 3da5 68bc cd44 5a3d de89 8b3d f123 8e3d
00000040: bba7 323c 00fb b7bd 7178 52bd 9ce3 d3bc
00000050: 8498 063d a0a8 93bd f114 b9bd 9f84 c8bd
00000060: 83d5 153d d09c 9d3d d3f3 c0bd 8290 3abd
00000070: 40a9 b53d c670 aabd 9ec6 c9bb e4bb b83d
00000080: 45d5 cb3c 40f7 24bd 9e23 b73c d356 3bbd
00000090: 5f45 8a3c 57e9 c3bd ad3c d7bc 1672 943d
000000a0: c3dd 84bd 2ab7 aabc eea2 c03c 9b2d 4b3d
000000b0: 7820 163e d47d ab3d 4a07 ff3d 6734 dcbd
000000c0: 816f 2a3c 5cbe b1bc d11b 98bd 6f12 cc3c
000000d0: e406 34bf 20bd b1bb 931d 103d 65fe c13d
000000e0: 9f97 093d 3c86 d53d 3f9d c7bd 7196 9dbd
000000f0: 9156 903d faf3 553c 9806 4a3d b1d0 d63d
00000100: 2e5c 3b3e 6652 f7bc 6dd0 283d 8906 4dbd
00000110: d60a 5b3d 00ed 5a3d ed2b 7ebf 4d4d e4bd
00000120: 989d 783c ab52 9ebd a5a4 c43d 5c80 033e
00000130: d523 a7bd 0010 38bd 679d d73c 5c44 8ebd
00000140: e2a2 e43c f840 0bbd 6281 e63d 734f b53c
00000150: 958d b5bd ab4a b93c 97f5 b03b a867 853d
00000160: 0e2f 4abf 6a1c bf3d cc3d 9dbd 4460 e13b
00000170: f262 203c 948f 9d3d 69ea c1bd 82c1 f13c
00000180: 319c 6d3d 45e9 ea3c eba5 0b3d 5f02 ad3d
00000190: be02 a73d 45c9 a83d 795c 85bd daa2 55bd
000001a0: 7358 ba3d 798b b73d 10c3 963c 4a6a 71bc
000001b0: 5723 81bd 7513 b8bd 68cc ad3c 57e4 c03d
000001c0: 49ea c53c 7a5b cabd d44f 8fbd 0398 8d3b
000001d0: a6b1 9bbd ac78 b0bd 206d 653d c49a afbd
000001e0: c8e8 c0bd c9d2 ac3d 2c6f c7bd a576 da3b
000001f0: 4801 13bc cfa2 c5bd 9ad0 fcbd 23b7 583d
00000200: cb24 12bc 8350 7f3d 8d77 95bd f2ef c1bd
00000210: 6ca4 6f3d ba63 9dbd 170e 8dbd 0a48 bbbd
00000220: 0d91 033c 4bd6 613c 81ad c0bd d3fe 983d
00000230: 9f25 28bd 4e5e aabc fbe9 4f3d 6916 aabd
00000240: 0339 e5bd ab24 3f3d 46f0 90bd c3c5 8c3d
00000250: 0121 96bd 778d 0fbd fc37 da3c 402c 043d
00000260: e60d cfbd a0e2 f53c 32a4 503d cc42 9b3d
00000270: c47f 53bd 9b81 993d 9f66 bebd 1e0b 863d
00000280: 5c80 793d 3c8c b03d 67ba d7b9 a136 66bd
00000290: bb9b cdbc a943 bebd b28b 613d d68b 0abd
000002a0: a3b0 2d3d 121e 073d 9dd4 1a3c ed7f bebc
000002b0: bc86 d7bd 446c 7e3b 1ddc 6a3d f757 cbbc
000002c0: dd98 36bf aceb 283d 048a 27bd 7fc3 1bbc
000002d0: 36d8 fcbc 7c00 a9bd 5321 c7bd f622 a93d
000002e0: 3f3b 523d 2cda 51bd e90b b03d 1758 183d
000002f0: 1bae 74bc e2d9 ab3d ddda 90bd a27a 21bd
00000300: 2b28 80bd 8f52 9bbc d3c8 b6bb f003 78bd
00000310: 140e ddba 4ad5 25bd 2fdd d9bd febb d2bd
00000320: c851 c6bd d333 853d a780 cabc a1e5 383d
00000330: 2987 3ebd 7b4d 69bd 33d5 b1bd f6c0 5b3d
00000340: 915f 9cbd 9e30 253d aba8 adbd 555e febc
00000350: 9cdd 65bd 024c dbbd d749 1abd 12da 06be
00000360: f4c4 11bd edfc 78bc 1d14 7abd 9261 7fbc
00000370: ee51 8d3d 3579 08bd b257 e9bd 02c2 5abd
00000380: a30d e4bc 9d95 2a3d d221 86bc 1a9a 5fbd
00000390: 11ee 943b 40a1 a4bd 4195 233d 894a b1bd
000003a0: f9eb 68bd 39a6 d7bb db68 ffbc 58f7 b0bc
000003b0: 2357 a33d b431 b93c 35df aa3c 00c5 443c
000003c0: 2a66 663d 999a dc3b c8dc bcbd c487 f8bc
000003d0: d11c 28bd 44d4 2f3d 4323 693d f254 5ebc
000003e0: 0443 853d 11fa a3bb 13ec d03b e0e8 39bd
000003f0: 19ff 25bd 1f28 213d 6d3e e7bd 9163 a5bd

layers.0.bias f4 [32]
0.07826392 -0.05800193 0.08059661 0.017527897 -0.01213384 -0.025103956 -0.10179151 0.09340968
-0.026848353 -0.10369504 -0.10181808 0.059665278 0.028533975 -0.08226674 -0.068034224 0.01820895
0.038266595 -0.031528164 0.062106512 0.10131618 0.08352685 0.039300237 0.008723363 -0.07648429
0.085989505 0.0027460456 -0.08012665 -0.0154800415 -0.019744968 -0.0926967 -0.07193716 0.021165177
00000000: d648 a03d 6f93 6dbd d60f a53d aa96 8f3c
00000010: 03cd 46bc d0a6 cdbc 1178 d0bd 934d bf3d
00000020: 14f1 dbbc 115e d4bd ff85 d0bd 9463 743d
00000030: 15c0 e93c 777b a8bd 8755 8bbd f02a 953c
00000040: 6fbd 1c3d ad23 01bd 6663 7e3d db7e cf3d
00000050: 2010 ab3d 49f9 203d 70ec 0e3c cca3 9cbd
00000060: 441b b03d 00f7 333b 7119 a4bd 00a0 7dbc
00000070: 33c0 a1bc c4d7 bdbd ca53 93bd 9862 ad3c

layers.2.weight f4 [16, 32]
-0.20427218 -0.004719802 -0.29134268 0.09766008 -0.52237964 0.015555555 -0.00697338 -0.14727053
-0.07690881 -0.11003238 0.108878635 -0.15301055 -0.21820666 -0.16638264 -0.27890468 0.14703135
-0.32223654 -0.08539901 -0.012541308 0.081105344 -0.042497415 -0.27909127 -0.2919876 0.05344703
-0.16808695 -0.01942119 -0.18651812 -0.13006455 -0.4514383 0.13360481 0.13980629 -0.023895275
-0.18128721 0.07265479 -0.07135333 0.038224 -0.21160422 -0.0428234 0.13164745 -0.038834583
-0.11772418 0.026575891 0.12314053 -0.0683021 -0.1357618 -0.105933025 -0.053215183 -0.16282058
-0.08615148 -0.13661513 0.00396684 0.14135091 0.16714685 0.0519792 0.1651826 -0.09581901
0.0109050125 0.026701823 0.0985072 0.09187375 -0.2839972 -0.041957475 0.0956267 -0.12963344
0.012227353 0.08355755 0.09519208 -0.07286894 -0.22918016 0.022839237 0.1260328 0.0928533
0.095016375 0.09003673 -0.1654884 -0.10492291 -0.14672449 0.023340538 0.041259043 -0.07341635
-0.09331903 0.042297825 0.029046178 -0.06093974 0.14323018 -0.051764883 0.08977611 -0.06376394
0.032818273 0.13054667 -0.13987243 -0.00985381 -0.15098852 0.10266137 0.07147339 0.054053623
-0.004665231 0.08949231 0.13975663 0.1186018 -0.08987621 -0.11863096 -0.036936168 0.118397504
0.06423573 -0.019206572 0.05214765 -0.03606811 0.25097132 -0.17128605 -0.02024843 -0.02025421
0.31136885 -0.04553624 0.0690316 -0.07795142 0.085837245 0.044791244 -0.00537089 -0.056987077
0.031939015 0.09348793 0.05407222 0.09960897 -0.14922787 -0.0064876843 -0.083834484 0.29712713
-0.17008725 -0.21151023 -0.054858953 0.065485135 -0.3358316 0.10333244 0.15166542 0.14505887
0.046760365 -0.051734697 -0.15438646 -0.110496305 -0.09282381 0.16645806 -0.061737385 -0.0006069392
0.0061758747 -0.07461288 -0.099908575 -0.139013 -0.12266626 -0.21749474 -0.033532165 -0.12122307
0.12966536 -0.10058942 -0.10217715 -0.141666 -0.2496482 0.07320122 0.13627158 -0.09872408
-0.10225158 -0.01759472 -0.15447704 0.0625825 -0.46533522 -0.16643728 0.028227298 0.05092048
0.03115286 0.124578066 0.095280595 0.16384779 -0.12175812 0.17047812 0.034378447 0.14831372
0.1601131 -0.0008567398 0.13991615 0.16292112 -0.12756796 -0.21601313 -0.100580916 0.06537606
-0.09065624 0.005110994 -0.1476919 -0.06012865 -0.2581815 0.123660624 0.069391534 -0.14675207
-0.003238812 0.062358975 0.00058329105 0.08349778 -0.12243259 -0.11774976 -0.16474515 0.03305261
-0.05322232 0.056433305 0.12787022 -0.12473935 0.09820004 -0.038693562 -0.12298231 0.014320567
-0.079480544 -0.11932139 -0.09860961 -0.09272823 0.037989244 -0.119350836 -0.14783472 0.05317712
-0.09688886 -0.076314494 0.065996364 0.12245576 -0.053038836 0.0064248443 0.067028195 -0.093095556
-0.091767855 0.07372021 0.15173541 -0.009583641 0.0034848913 -0.10065028 0.123113565 -0.025468819
0.17384194 -0.14358537 0.07715644 -0.093048945 0.17771333 -0.12165976 -0.099629626 -0.15048277
-0.09482527 0.02920132 0.116102226 0.017100686 0.0076232087 0.031582326 0.10904875 0.1286365
-0.123596385 -0.16058163 -0.20971663 -0.1349124 -0.0673711 0.09789322 -0.05444797 0.07794819
00000000: ba2c 51be 92a8 9abb de2a 95be 0202 c83d
00000010: acba 05bf badc 7e3c f480 e4bb 16ce 16be
00000020: 5e82 9dbd a858 e1bd c3fb de3d ccae 1cbe
00000030: 9171 5fbe 3660 2abe 98cc 8ebe 638f 163e
00000040: 30fc a4be ade5 aebd 0f7a 4dbc 8f1a a63d
00000050: c511 2ebd 0de5 8ebe 667f 95be 46eb 5a3d
00000060: fc1e 2cbe 3019 9fbc 9bfe 3ebe a42f 05be
00000070: ec22 e7be b3cf 083e 6129 0f3e 06c0 c3bc
00000080: 5ba3 39be 09cc 943d b221 92bd c590 1c3d
00000090: c7ae 58be 9767 2fbd 97ce 063e 0311 1fbd
000000a0: 6019 f1bd afb5 d93c 1a31 fc3d f9e1 8bbd
000000b0: 2405 0bbe 6af3 d8bd 2af8 59bd 70ba 26be
000000c0: 3070 b0bd d6e4 0bbe 44fc 813b 4bbe 103e
000000d0: 8b28 2b3e 24e8 543d a125 293e c23c c4bd
000000e0: f0aa 323c c8bd da3c 25be c93d 4e28 bc3d
000000f0: 1568 91be 9adb 2bbd eed7 c33d a1be 04be
00000100: 3c55 483c 3920 ab3d 11f4 c23d 503c 95bd
00000110: 34ae 6abe 5a19 bb3c be0e 013e df29 be3d
00000120: f297 c23d 2d65 b83d cb75 29be d3e1 d6bd
00000130: f23e 16be a834 bf3c 3eff 283d 505b 96bd
00000140: 0c1e bfbd 7c40 2d3d 40f2 ed3c f39b 79bd
00000150: efaa 123e 6a07 54bd 8adc b73d ab96 82bd
00000160: 746c 063d 07ae 053e b83a 0fbe e071 21bc
00000170: bc9c 1abe 2040 d23d a460 923d 5567 5d3d
00000180: cbde 98bb bf47 b73d 5d1c 0f3e 80e5 f23d
00000190: 0511 b8bd caf4 f2bd 614a 17bd 647a f23d
000001a0: 068e 833d 1a57 9dbc c698 553d 28bc 13bd
000001b0: 507f 803e 9c65 2fbe 09e0 a5bc 28ec a5bc
000001c0: bd6b 9f3e 3584 3abd 7160 8d3d fea4 9fbd
000001d0: 70cb af3d 0677 373d 4afe afbb 486b 69bd
000001e0: 7cd2 023d 9a76 bf3d d57a 5d3d caff cb3d
000001f0: 31cf 18be a496 d4bb 6ab1 abbd 0c21 983e
00000200: 5a2b 2ebe 2396 58be c8b3 60bd 121d 863d
00000210: 1ff2 abbe f59f d33d 2e4e 1b3e 508a 143e
00000220: cc87 3f3d c3e7 53bd 7c17 1ebe e34b e2bd
00000230: 691a bebd fb73 2a3e 57e0 7cbd 001b 1fba
00000240: fe5e ca3b a3ce 98bd de9c ccbd 6d59 0ebe
00000250: 7338 fbbd f1b6 5ebe 0659 09bd cd43 f8bd
00000260: ffc6 043e d301 cebd 4142 d1bd e410 11be
00000270: c7a3 7fbe 85ea 953d c78a 0b3e da2f cabd
00000280: 4769 d1bd cd22 90bc 3b2f 1ebe 412b 803d
00000290: 6b40 eebe 896e 2abe ef3c e73c fe91 503d
000002a0: 4834 ff3c c922 ff3d 7922 c33d b7c7 273e
000002b0: 525c f9bd d191 2e3e 6ad0 0c3d 8ddf 173e
000002c0: b0f4 233e d696 60ba 2e46 0f3e cbd4 263e
000002d0: 2da1 02be 8c32 5dbe 5efd cdbd e2e3 853d
000002e0: fba9 b9bd 207a a73b 8c3c 17be 7649 76bd
000002f0: 5e30 84be c841 fd3d 261d 8e3d 2d46 16be
00000300: 4042 54bb 206c 7f3d 00e8 183a e200 ab3d
00000310: f0bd fabd c926 f1bd f4b2 28be 2c62 073d
00000320: a6ff 59bd 9c26 673d 69f0 023e 5877 ffbd
00000330: 1a1d c93d 247d 1ebd 26de fbbd d0a0 6a3c
00000340: b2c6 a2bd c65e f4bd d6f3 c9bd 4ce8 bdbd
00000350: 9c9a 1b3d 366e f4bd fc61 17be 40d0 593d
00000360: ab6d c6bd c64a 9cbd 1a29 873d 16ca fa3d
00000370: 403f 59bd 8087 d23b 1446 893d e2a8 bebd
00000380: c9f0 bbbd 9ffa 963d 8760 1b3e b404 1dbc
00000390: c662 643b bc21 cebd f722 fc3d fca3 d0bc
000003a0: 9f03 323e 0b08 13be 3204 9e3d 7290 bebd
000003b0: 7cfa 353e c128 f9bd 9e0a ccbd 2818 1abe
000003c0: c033 c2bd 9b37 ef3c 01c7 ed3d bd16 8c3c
000003d0: 1ccc f93b 785c 013d f354 df3d 49b9 033e
000003e0: 1a20 fdbd 836f 24be f5bf 56be 7a26 0abe
000003f0: dcf9 89bd 3e7c c83d d604 5fbd 4da3 9f3d

layers.2.bias f4 [16]
0.1341542 0.16712067 -0.045002773 0.030122176 0.065017775 0.09698147 -0.08101037 0.031465262
-0.15071957 0.104538284 -0.16569102 0.15376587 -0.09271896 0.12371795 0.1531276 -0.021145698
00000000: b85f 093e ae21 2b3e d454 38bd c8c2 f63c
00000010: 0a28 853d 399e c63d c4e8 a5bd b8e1 003d
00000020: 3b56 1abe 2b18 d63d e8aa 29be cd74 1d3e
00000030: 70e3 bdbd d65f fd3d 7bcd 1c3e be39 adbc

layers.4.weight f4 [1, 16]
0.047078103 0.10032005 0.09617548 -0.2494189 0.093577966 0.1820913 -0.19238663 0.010625337
0.42451116 0.16081895 -0.036171056 -0.17197949 0.05463629 0.27217764 -0.06781806 0.12101983
00000000: f8d4 403d 9974 cd3d a6f7 c43d ab67 7fbe
00000010: cea5 bf3d 2476 3a3e 0001 45be e515 2e3c
00000020: 8759 d93e b9ad 243e 1a28 14bd 641b 30be
00000030: 4dca 5f3d de5a 8b3e 32e4 8abd 3fd9 f73d
